…
l, input_size=(3, 256, 256))  ","metadata":{"trusted":true,"execution":{"iopub.status.busy":"2025-01-23T06:33:31.402132Z","iopub.execute_input":"2025-01-23T06:33:31.402487Z","iopub.status.idle":"2025-01-23T06:33:31.418864Z","shell.execute_reply.started":"2025-01-23T06:33:31.402458Z","shell.execute_reply":"2025-01-23T06:33:31.418177Z"}},"outputs":[{"name":"stdout","text":"----------------------------------------------------------------\n        Layer (type)               Output Shape         Param #\n================================================================\n            Conv2d-1         [-1, 12, 256, 256]             336\n              ReLU-2         [-1, 12, 256, 256]               0\n         MaxPool2d-3           [-1, 12, 85, 85]               0\n           Flatten-4                [-1, 86700]               0\n            Linear-5                    [-1, 2]         173,402\n================================================================\nTotal params: 173,738\nTrainable params: 173,738\nNon-trainable params: 0\n----------------------------------------------------------------\nInput size (MB): 0.75\nForward/backward pass size (MB): 13.32\nParams size (MB): 0.66\nEstimated Total Size (MB): 14.74\n----------------------------------------------------------------\n","o
…
l, input_size=(3, 256, 256))  ","metadata":{"trusted":true,"execution":{"iopub.status.busy":"2025-01-23T06:51:21.824917Z","iopub.execute_input":"2025-01-23T06:51:21.825238Z","iopub.status.idle":"2025-01-23T06:51:22.532264Z","shell.execute_reply.started":"2025-01-23T06:51:21.825213Z","shell.execute_reply":"2025-01-23T06:51:22.531502Z"}},"outputs":[{"name":"stdout","text":"----------------------------------------------------------------\n        Layer (type)               Output Shape         Param #\n================================================================\n            Conv2d-1         [-1, 12, 256, 256]             336\n              ReLU-2         [-1, 12, 256, 256]               0\n         MaxPool2d-3           [-1, 12, 85, 85]               0\n            Conv2d-4           [-1, 24, 85, 85]           2,616\n              ReLU-5           [-1, 24, 85, 85]               0\n         MaxPool2d-6           [-1, 24, 28, 28]               0\n           Flatten-7                [-1, 18816]               0\n            Linear-8                    [-1, 2]          37,634\n================================================================\nTotal params: 40,586\nTrainable params: 40,586\nNon-trainable params: 0\n----------------------------------------------------------------\nInput size (MB): 0.75\nForward/backward pass size (MB): 15.59\nParams size (MB): 0.15\nEstimated Total Size (MB): 16.50\n----------------------------------------------------------------\n","out
…
l, input_size=(3, 256, 256))  ","metadata":{"trusted":true,"execution":{"iopub.status.busy":"2025-01-23T07:56:42.102345Z","iopub.execute_input":"2025-01-23T07:56:42.102622Z","iopub.status.idle":"2025-01-23T07:56:42.251937Z","shell.execute_reply.started":"2025-01-23T07:56:42.102602Z","shell.execute_reply":"2025-01-23T07:56:42.251095Z"}},"outputs":[{"name":"stdout","text":"----------------------------------------------------------------\n        Layer (type)               Output Shape         Param #\n================================================================\n            Conv2d-1         [-1, 12, 256, 256]             336\n              ReLU-2         [-1, 12, 256, 256]               0\n         MaxPool2d-3           [-1, 12, 85, 85]               0\n            Conv2d-4           [-1, 24, 85, 85]           2,616\n              ReLU-5           [-1, 24, 85, 85]               0\n         MaxPool2d-6           [-1, 24, 28, 28]               0\n            Conv2d-7           [-1, 48, 28, 28]          10,416\n              ReLU-8           [-1, 48, 28, 28]               0\n         MaxPool2d-9             [-1, 48, 9, 9]               0\n          Flatten-10                 [-1, 3888]               0\n           Linear-11                    [-1, 2]           7,778\n================================================================\nTotal params: 21,146\nTrainable params: 21,146\nNon-trainable params: 0\n----------------------------------------------------------------\nInput size (MB): 0.75\nForward/backward pass size (MB): 16.08\nParams size (MB): 0.08\nEstimated Total Size (MB): 16.92\n----------------------------------------------------------------\n","out
…
